…
architecture.py - CubeDiffModel - Inflated layer module: up_blocks.3.attentions.1.transformer_blocks.0.attn2
architecture.py - CubeDiffModel - Inflated layer module: up_blocks.3.attentions.2.transformer_blocks.0.attn1
architecture.py - CubeDiffModel - Inflated layer module: up_blocks.3.attentions.2.transformer_blocks.0.attn2
architecture.py - CubeDiffModel - Inflated layer module: mid_block.attentions.0.transformer_blocks.0.attn1
architecture.py - CubeDiffModel - Inflated layer module: mid_block.attentions.0.transformer_blocks.0.attn2

=== Inflated-Attention Layers ===
archtecture.py - __init__  - unet -  ✅ down_blocks.0.attentions.0.transformer_blocks.0.attn1: InflatedAttention(
  (to_q): Linear(in_features=320, out_features=320, bias=False)
  (to_k): Linear(in_features=320, out_features=320, bias=False)
  (to_v): Linear(in_features=320, out_features=320, bias=False)
  (to_out): Sequential(
    (0): Linear(in_features=320, out_features=320, bias=True)
    (1): Dropout(p=0.0, inplace=False)
  )
)
archtecture.py - __init__  - unet -  ✅ down_blocks.0.attentions.0.transformer_blocks.0.attn2: InflatedAttention(
  (to_q): Linear(in_features=320, out_features=320, bias=False)
  (to_k): Linear(in_features=768, out_features=320, bias=False)
  (to_v): Linear(in_features=768, out_features=320, bias=False)
  (to_out): Sequential(
    (0): Linear(in_features=320, out_features=320, bias=True)
    (1): Dropout(p=0.0, inplace=False)
  )
)
archtecture.py - __init__  - unet -  ✅ down_blocks.0.attentions.1.transformer_blocks.0.attn1: InflatedAttention(
  (to_q): Linear(in_features=320, out_features=320, bias=False)
  (to_k): Linear(in_features=320, out_features=320, bias=False)
  (to_v): Linear(in_features=320, out_features=320, bias=False)
  (to_out): Sequential(
    (0): Linear(in_features=320, out_features=320, bias=True)
    (1): Dropout(p=0.0, inplace=False)
  )
)
archtecture.py - __init__  - unet -  ✅ down_blocks.0.attentions.1.transformer_blocks.0.attn2: InflatedAttention(
  (to_q): Linear(in_features=320, out_features=320, bias=False)
  (to_k): Linear(in_features=768, out_features=320, bias=False)
  (to_v): Linear(in_features=768, out_features=320, bias=False)
  (to_out): Sequential(
    (0): Linear(in_features=320, out_features=320, bias=True)
    (1): Dropout(p=0.0, inplace=False)
  )
)
archtecture.py - __init__  - unet -  ✅ down_blocks.1.attentions.0.transformer_blocks.0.attn1: InflatedAttention(
  (to_q): Linear(in_features=640, out_features=640, bias=False)
  (to_k): Linear(in_features=640, out_features=640, bias=False)
  (to_v): Linear(in_features=640, out_features=640, bias=False)
  (to_out): Sequential(
    (0): Linear(in_features=640, out_features=640, bias=True)
    (1): Dropout(p=0.0, inplace=False)
  )
)
archtecture.py - __init__  - unet -  ✅ down_blocks.1.attentions.0.transformer_blocks.0.attn2: InflatedAttention(
  (to_q): Linear(in_features=640, out_features=640, bias=False)
  (to_k): Linear(in_features=768, out_features=640, bias=False)
  (to_v): Linear(in_features=768, out_features=640, bias=False)
  (to_out): Sequential(
    (0): Linear(in_features=640, out_features=640, bias=True)
    (1): Dropout(p=0.0, inplace=False)
  )
)
archtecture.py - __init__  - unet -  ✅ down_blocks.1.attentions.1.transformer_blocks.0.attn1: InflatedAttention(
  (to_q): Linear(in_features=640, out_features=640, bias=False)
  (to_k): Linear(in_features=640, out_features=640, bias=False)
  (to_v): Linear(in_features=640, out_features=640, bias=False)
  (to_out): Sequential(
    (0): Linear(in_features=640, out_features=640, bias=True)
    (1): Dropout(p=0.0, inplace=False)
  )
)
archtecture.py - __init__  - unet -  ✅ down_blocks.1.attentions.1.transformer_blocks.0.attn2: InflatedAttention(
  (to_q): Linear(in_features=640, out_features=640, bias=False)
  (to_k): Linear(in_features=768, out_features=640, bias=False)
  (to_v): Linear(in_features=768, out_features=640, bias=False)
  (to_out): Sequential(
    (0): Linear(in_features=640, out_features=640, bias=True)
    (1): Dropout(p=0.0, inplace=False)
  )
)
archtecture.py - __init__  - unet -  ✅ down_blocks.2.attentions.0.transformer_blocks.0.attn1: InflatedAttention(
  (to_q): Linear(in_features=1280, out_features=1280, bias=False)
  (to_k): Linear(in_features=1280, out_features=1280, bias=False)
  (to_v): Linear(in_features=1280, out_features=1280, bias=False)
  (to_out): Sequential(
    (0): Linear(in_features=1280, out_features=1280, bias=True)
    (1): Dropout(p=0.0, inplace=False)
  )
)
archtecture.py - __init__  - unet -  ✅ down_blocks.2.attentions.0.transformer_blocks.0.attn2: InflatedAttention(
  (to_q): Linear(in_features=1280, out_features=1280, bias=False)
  (to_k): Linear(in_features=768, out_features=1280, bias=False)
  (to_v): Linear(in_features=768, out_features=1280, bias=False)
  (to_out): Sequential(
    (0): Linear(in_features=1280, out_features=1280, bias=True)
    (1): Dropout(p=0.0, inplace=False)
  )
)
archtecture.py - __init__  - unet -  ✅ down_blocks.2.attentions.1.transformer_blocks.0.attn1: InflatedAttention(
  (to_q): Linear(in_features=1280, out_features=1280, bias=False)
  (to_k): Linear(in_features=1280, out_features=1280, bias=False)
  (to_v): Linear(in_features=1280, out_features=1280, bias=False)
  (to_out): Sequential(
    (0): Linear(in_features=1280, out_features=1280, bias=True)
    (1): Dropout(p=0.0, inplace=False)
  )
)
archtecture.py - __init__  - unet -  ✅ down_blocks.2.attentions.1.transformer_blocks.0.attn2: InflatedAttention(
  (to_q): Linear(in_features=1280, out_features=1280, bias=False)
  (to_k): Linear(in_features=768, out_features=1280, bias=False)
  (to_v): Linear(in_features=768, out_features=1280, bias=False)
  (to_out): Sequential(
    (0): Linear(in_features=1280, out_features=1280, bias=True)
    (1): Dropout(p=0.0, inplace=False)
  )
)
archtecture.py - __init__  - unet -  ✅ up_blocks.1.attentions.0.transformer_blocks.0.attn1: InflatedAttention(
  (to_q): Linear(in_features=1280, out_features=1280, bias=False)
  (to_k): Linear(in_features=1280, out_features=1280, bias=False)
  (to_v): Linear(in_features=1280, out_features=1280, bias=False)
  (to_out): Sequential(
    (0): Linear(in_features=1280, out_features=1280, bias=True)
    (1): Dropout(p=0.0, inplace=False)
  )
)
archtecture.py - __init__  - unet -  ✅ up_blocks.1.attentions.0.transformer_blocks.0.attn2: InflatedAttention(
  (to_q): Linear(in_features=1280, out_features=1280, bias=False)
  (to_k): Linear(in_features=768, out_features=1280, bias=False)
  (to_v): Linear(in_features=768, out_features=1280, bias=False)
  (to_out): Sequential(
    (0): Linear(in_features=1280, out_features=1280, bias=True)
    (1): Dropout(p=0.0, inplace=False)
  )
)
archtecture.py - __init__  - unet -  ✅ up_blocks.1.attentions.1.transformer_blocks.0.attn1: InflatedAttention(
  (to_q): Linear(in_features=1280, out_features=1280, bias=False)
  (to_k): Linear(in_features=1280, out_features=1280, bias=False)
  (to_v): Linear(in_features=1280, out_features=1280, bias=False)
  (to_out): Sequential(
    (0): Linear(in_features=1280, out_features=1280, bias=True)
    (1): Dropout(p=0.0, inplace=False)
  )
)
archtecture.py - __init__  - unet -  ✅ up_blocks.1.attentions.1.transformer_blocks.0.attn2: InflatedAttention(
  (to_q): Linear(in_features=1280, out_features=1280, bias=False)
  (to_k): Linear(in_features=768, out_features=1280, bias=False)
  (to_v): Linear(in_features=768, out_features=1280, bias=False)
  (to_out): Sequential(
    (0): Linear(in_features=1280, out_features=1280, bias=True)
    (1): Dropout(p=0.0, inplace=False)
  )
)
archtecture.py - __init__  - unet -  ✅ up_blocks.1.attentions.2.transformer_blocks.0.attn1: InflatedAttention(
  (to_q): Linear(in_features=1280, out_features=1280, bias=False)
  (to_k): Linear(in_features=1280, out_features=1280, bias=False)
  (to_v): Linear(in_features=1280, out_features=1280, bias=False)
  (to_out): Sequential(
    (0): Linear(in_features=1280, out_features=1280, bias=True)
    (1): Dropout(p=0.0, inplace=False)
  )
)
archtecture.py - __init__  - unet -  ✅ up_blocks.1.attentions.2.transformer_blocks.0.attn2: InflatedAttention(
  (to_q): Linear(in_features=1280, out_features=1280, bias=False)
  (to_k): Linear(in_features=768, out_features=1280, bias=False)
  (to_v): Linear(in_features=768, out_features=1280, bias=False)
  (to_out): Sequential(
    (0): Linear(in_features=1280, out_features=1280, bias=True)
    (1): Dropout(p=0.0, inplace=False)
  )
)
archtecture.py - __init__  - unet -  ✅ up_blocks.2.attentions.0.transformer_blocks.0.attn1: InflatedAttention(
  (to_q): Linear(in_features=640, out_features=640, bias=False)
  (to_k): Linear(in_features=640, out_features=640, bias=False)
  (to_v): Linear(in_features=640, out_features=640, bias=False)
  (to_out): Sequential(
    (0): Linear(in_features=640, out_features=640, bias=True)
    (1): Dropout(p=0.0, inplace=False)
  )
)
archtecture.py - __init__  - unet -  ✅ up_blocks.2.attentions.0.transformer_blocks.0.attn2: InflatedAttention(
  (to_q): Linear(in_features=640, out_features=640, bias=False)
  (to_k): Linear(in_features=768, out_features=640, bias=False)
  (to_v): Linear(in_features=768, out_features=640, bias=False)
  (to_out): Sequential(
    (0): Linear(in_features=640, out_features=640, bias=True)
    (1): Dropout(p=0.0, inplace=False)
  )
)
archtecture.py - __init__  - unet -  ✅ up_blocks.2.attentions.1.transformer_blocks.0.attn1: InflatedAttention(
  (to_q): Linear(in_features=640, out_features=640, bias=False)
  (to_k): Linear(in_features=640, out_features=640, bias=False)
  (to_v): Linear(in_features=640, out_features=640, bias=False)
  (to_out): Sequential(
    (0): Linear(in_features=640, out_features=640, bias=True)
    (1): Dropout(p=0.0, inplace=False)
  )
)
archtecture.py - __init__  - unet -  ✅ up_blocks.2.attentions.1.transformer_blocks.0.attn2: InflatedAttention(
  (to_q): Linear(in_features=640, out_features=640, bias=False)
  (to_k): Linear(in_features=768, out_features=640, bias=False)
  (to_v): Linear(in_features=768, out_features=640, bias=False)
  (to_out): Sequential(
    (0): Linear(in_features=640, out_features=640, bias=True)
    (1): Dropout(p=0.0, inplace=False)
  )
)
archtecture.py - __init__  - unet -  ✅ up_blocks.2.attentions.2.transformer_blocks.0.attn1: InflatedAttention(
  (to_q): Linear(in_features=640, out_features=640, bias=False)
  (to_k): Linear(in_features=640, out_features=640, bias=False)
  (to_v): Linear(in_features=640, out_features=640, bias=False)
  (to_out): Sequential(
    (0): Linear(in_features=640, out_features=640, bias=True)
    (1): Dropout(p=0.0, inplace=False)
  )
)
archtecture.py - __init__  - unet -  ✅ up_blocks.2.attentions.2.transformer_blocks.0.attn2: InflatedAttention(
  (to_q): Linear(in_features=640, out_features=640, bias=False)
  (to_k): Linear(in_features=768, out_features=640, bias=False)
  (to_v): Linear(in_features=768, out_features=640, bias=False)
  (to_out): Sequential(
    (0): Linear(in_features=640, out_features=640, bias=True)
    (1): Dropout(p=0.0, inplace=False)
  )
)
archtecture.py - __init__  - unet -  ✅ up_blocks.3.attentions.0.transformer_blocks.0.attn1: InflatedAttention(
  (to_q): Linear(in_features=320, out_features=320, bias=False)
  (to_k): Linear(in_features=320, out_features=320, bias=False)
  (to_v): Linear(in_features=320, out_features=320, bias=False)
  (to_out): Sequential(
    (0): Linear(in_features=320, out_features=320, bias=True)
    (1): Dropout(p=0.0, inplace=False)
  )
)
archtecture.py - __init__  - unet -  ✅ up_blocks.3.attentions.0.transformer_blocks.0.attn2: InflatedAttention(
  (to_q): Linear(in_features=320, out_features=320, bias=False)
  (to_k): Linear(in_features=768, out_features=320, bias=False)
  (to_v): Linear(in_features=768, out_features=320, bias=False)
  (to_out): Sequential(
    (0): Linear(in_features=320, out_features=320, bias=True)
    (1): Dropout(p=0.0, inplace=False)
  )
)
archtecture.py - __init__  - unet -  ✅ up_blocks.3.attentions.1.transformer_blocks.0.attn1: InflatedAttention(
  (to_q): Linear(in_features=320, out_features=320, bias=False)
  (to_k): Linear(in_features=320, out_features=320, bias=False)
  (to_v): Linear(in_features=320, out_features=320, bias=False)
  (to_out): Sequential(
    (0): Linear(in_features=320, out_features=320, bias=True)
    (1): Dropout(p=0.0, inplace=False)
  )
)
archtecture.py - __init__  - unet -  ✅ up_blocks.3.attentions.1.transformer_blocks.0.attn2: InflatedAttention(
  (to_q): Linear(in_features=320, out_features=320, bias=False)
  (to_k): Linear(in_features=768, out_features=320, bias=False)
  (to_v): Linear(in_features=768, out_features=320, bias=False)
  (to_out): Sequential(
    (0): Linear(in_features=320, out_features=320, bias=True)
    (1): Dropout(p=0.0, inplace=False)
  )
)
archtecture.py - __init__  - unet -  ✅ up_blocks.3.attentions.2.transformer_blocks.0.attn1: InflatedAttention(
  (to_q): Linear(in_features=320, out_features=320, bias=False)
  (to_k): Linear(in_features=320, out_features=320, bias=False)
  (to_v): Linear(in_features=320, out_features=320, bias=False)
  (to_out): Sequential(
    (0): Linear(in_features=320, out_features=320, bias=True)
    (1): Dropout(p=0.0, inplace=False)
  )
)
archtecture.py - __init__  - unet -  ✅ up_blocks.3.attentions.2.transformer_blocks.0.attn2: InflatedAttention(
  (to_q): Linear(in_features=320, out_features=320, bias=False)
  (to_k): Linear(in_features=768, out_features=320, bias=False)
  (to_v): Linear(in_features=768, out_features=320, bias=False)
  (to_out): Sequential(
    (0): Linear(in_features=320, out_features=320, bias=True)
    (1): Dropout(p=0.0, inplace=False)
  )
)
archtecture.py - __init__  - unet -  ✅ mid_block.attentions.0.transformer_blocks.0.attn1: InflatedAttention(
  (to_q): Linear(in_features=1280, out_features=1280, bias=False)
  (to_k): Linear(in_features=1280, out_features=1280, bias=False)
  (to_v): Linear(in_features=1280, out_features=1280, bias=False)
  (to_out): Sequential(
    (0): Linear(in_features=1280, out_features=1280, bias=True)
    (1): Dropout(p=0.0, inplace=False)
  )
)
archtecture.py - __init__  - unet -  ✅ mid_block.attentions.0.transformer_blocks.0.attn2: InflatedAttention(
  (to_q): Linear(in_features=1280, out_features=1280, bias=False)
  (to_k): Linear(in_features=768, out_features=1280, bias=False)
  (to_v): Linear(in_features=768, out_features=1280, bias=False)
  (to_out): Sequential(
    (0): Linear(in_features=1280, out_features=1280, bias=True)
    (1): Dropout(p=0.0, inplace=False)
  )
)
=== End inflated list ===

architecture.py - CubeDiffModel - Replacing GroupNorms in UNet for color consistency
architecture.py - CubeDiffModel - init - Replaced 61 GroupNorm layers with SGN in UNet
Loading CLIP tokenizer & text encoder…
Loading CLIP tokenizer done
Loading CLIP text encode done
Loading Scheduler done
…
